single-person/models/trainedModels/modelRod.pt (torch, 559269 bytes, 8 tensors)

mlp.layers.0.weight f8 [256, 12]
0.07420476483155197 -0.03453464363854586 -0.11346384482336347 0.24102965256193398 0.14551932365629694 0.27515547335454393 -0.14429848650266253 0.0796420223992636
-0.1943985316882793 -0.12427617371699465 -0.06583881825589502 0.061339248251714495 -0.021686254057313892 -0.27491026735626156 0.04518043909241787 0.13138633635060026
-0.19846151352084296 -0.1313685747275152 -0.06825733195272624 -0.22111583240596516 -0.04716434519309054 -0.10287222424139156 -0.2473243072949996 0.1794991748258612
-0.24238411337928917 0.12619611151930393 0.05552624126822464 0.0879562706140396 0.2555386266475248 0.16856422551821582 -0.2626054512430208 0.195575786160964
0.05990493489914467 -0.12605063466331282 -0.13917601903829843 0.27394951770633347 -0.15206757289579179 0.032446611963271255 0.24205869828081394 0.2142795329104259
0.19217370416705343 0.1486035439185494 -0.17242377821469806 0.1290501282733566 -0.24472419637432175 0.03687477136293954 -0.0804836253765529 -0.029401089190177476
-0.10314032080866381 0.24188248017581263 -0.049288710853111185 -0.23140044532250265 0.20696197553377477 0.16974544246652185 0.08073765045499474 -0.1194918684190781
-0.27681790015888047 -0.1837271800314643 -0.04199994574564456 0.20987100593826713 -0.27243439395910063 -0.09958307553110876 -0.018022599198441402 0.23838951587480595
-0.21103302323426693 -0.0019094201368187735 -0.0010262819002409551 0.195013239704386 0.24631764869426465 -0.18051864863806427 -0.237205286550992 0.150698651167887
-0.2794165148501849 -0.05936564896497748 -0.203379056098881 -0.11986549364644274 -0.04015110850681562 0.19426518966477363 0.26628743702627705 0.06617225989774979
-0.18072167377296017 0.17936777363569817 0.08021995077788731 0.114069557436239 0.1904946344684859 -0.0926812996590283 -0.221144352197268 0.02119022984472136
0.19890674649490536 0.24818482544282855 0.23619493017746002 -0.24938401091571208 -0.1152152134139894 -0.05351569056453871 0.19704242523525523 0.21769111772090607
-0.0662603573030989 -0.1762199422289462 0.28423874244092295 0.028875889444110625 -0.2738736712488357 -0.15391598564471443 -0.1421369036091538 -0.2708154554887111
0.27799279487700945 0.06179050700478661 -0.23675187633315414 0.015973607616199703 0.02846356135345096 -0.2437184692164434 -0.27918548506770363 -0.22461067935649937
0.26159750479142563 0.23822533499641863 0.15175442012932783 0.20315637486886662 0.077142881071667 0.18444404767832906 -0.032874023200590075 0.047134030904463164
0.07858717203696763 0.053071527200708124 -0.1710293518662762 -0.18254033915109702 0.18835524800729014 -0.19012239195692568 0.21949735885206845 -0.011094500853307265
0.05204741674348562 -0.0822448872213353 -0.12312321937847842 0.06769653409205434 -0.2776314781493286 0.16195545516652765 -0.022547619609596288 -0.046126517573569795
-0.2974978265486945 -0.11477416118981092 0.21819511452173831 -0.2041710461893986 -0.012078380392183419 0.18507077412133008 0.26096873765623924 0.07469301832331864
0.2554347380518243 -0.1005044531089221 0.2667109651693281 -0.2420918503601801 -0.055833977773118354 0.2640485948006348 -0.1276215109420733 -0.24564559829956256
0.2945761780868943 0.11904103405996017 0.2312111524486236 -0.02933907735399721 0.12175236106806836 -0.20180925608667216 -0.16232786383900857 -0.23470423012413547
0.15589967931803062 0.22102244098958201 -0.045318816749378155 -0.21671209898809313 -0.026826006495324906 0.09580182197579701 -0.17529010724606736 -0.2580512702876131
0.1269940609006308 0.07631675904370179 -0.05330973041901706 -0.1549261979853928 0.13259134650832607 -0.022244925366009024 0.06222855501430013 0.21877444395603288
0.17265125964728328 0.07574196902075167 0.1575940029252796 0.14444014966672583 -0.19284375404044118 0.07315240120879424 -0.21952435579112287 -0.022401954140159663
0.24495710978678698 -0.008914156494159275 -0.08318354248838417 -0.09685878449690091 -0.024768728875265156 -0.21581438735941688 -0.10399713786094841 -0.027168232576116003
0.27278403100605675 -0.20154869103728626 0.03362378170280683 0.23293528811822983 0.25319507009997944 0.03734542977161465 -0.18656989748410951 0.22980687137533873
-0.1479176288377411 -0.10961246029385552 -0.1419532972966769 -0.17424098424730966 0.21052737064918076 -0.15801510675009278 0.17955002573545997 -0.21752702355378636
0.12394499331040662 -0.09469561683879223 0.2924998201475752 -0.03983886942017332 -0.0006364526946374783 -0.14035190695346517 0.23935249109534246 0.2577918432396141
-0.013074061166487017 0.1524073880117806 0.28513399246735394 0.08879186657641674 -0.01875282209454543 -0.1184268049065095 -0.0023790127527006932 -0.2555924478790923
0.0836814794225409 -0.027813871260188472 -0.288253753435848 0.1497293751982291 0.21876870734739529 0.09246749920733871 -0.13670603698754294 -0.09119207160676313
0.024736417523607335 0.11166294786549802 0.01019351889532999 0.054478387029514075 0.17549939659081276 0.12134508479598122 -0.05239483059461947 0.04633235943757491
0.2698630346622799 -0.012674764680357664 0.19513845828610737 -0.17513830912461217 -0.2582223618986233 0.2055747890067645 0.037511681084910264 0.09984802835421602
-0.09645485045112381 0.23841277952352902 -0.19714653716587596 0.1819663688410751 0.12629872064574432 0.18092811609929788 -0.27563819192466865 -0.08833627801793173
00000000: ccac 285e 15ff b23f 005d 035a 86ae a1bf
00000010: b875 cb6e f70b bdbf f053 8f45 0fda ce3f
00000020: 4c19 0590 60a0 c23f f2e1 d7b3 259c d13f
00000030: ec13 3270 5f78 c2bf 4496 9769 6b63 b43f
00000040: 12ec fe13 0de2 c8bf 8258 c935 90d0 bfbf
00000050: 2a63 3713 d0da b0bf f898 67a2 db67 af3f
00000060: 30af cbdf eb34 96bf fc4d e83b 2198 d1bf
00000070: 1047 a4f8 e321 a73f d02f e278 44d1 c03f
00000080: 6818 0bd7 2f67 c9bf b5a1 167a afd0 c0bf
00000090: 22fd 7200 5079 b1bf 2edd 670a 864d ccbf
000000a0: 007d 48d0 ec25 a8bf 1297 c886 d555 babf
000000b0: 923f aba9 52a8 cfbf a09d c436 d4f9 c63f
000000c0: 365a 0450 7106 cfbf b6cb edb5 3127 c03f
000000d0: 9837 a27c ef6d ac3f f4f2 c359 4d84 b63f
000000e0: 4437 14af be5a d03f c82a f035 8393 c53f
000000f0: 26c4 3518 87ce d0bf cab4 b99a a008 c93f
00000100: 388c 8510 dcab ae3f b16d c25c 6d22 c0bf
00000110: 6f17 1411 85d0 c1bf 6a6f d38e 6388 d13f
00000120: 7d4c 2f42 f376 c3bf f01a 7fa2 d79c a03f
00000130: e809 6a88 c7fb ce3f 30b6 0601 836d cb3f
00000140: ee3a 46df 2599 c83f 5295 99e0 7005 c33f
00000150: ba10 3e7c fb11 c6bf 1c45 3df0 b684 c03f
00000160: 1cda fb59 1f53 cfbf 5844 1a02 40e1 a23f
00000170: 6416 db2a 939a b4bf 8084 27b2 511b 9ebf
00000180: 3cac c570 6767 babf 494d ea4e 01f6 ce3f
00000190: 752b 5ab2 5e3c a9bf 6e51 78a0 879e cdbf
000001a0: 4e70 37e2 ba7d ca3f 1ef6 04fa 37ba c53f
000001b0: bb94 4200 39ab b43f c874 ffe2 0497 bebf
000001c0: 654e 086d 62b7 d1bf 758b cf4a 5f84 c7bf
000001d0: 3c98 d252 0481 a5bf d815 7199 0ddd ca3f
000001e0: e208 17ab 906f d1bf 5626 a4c4 467e b9bf
000001f0: 20bb 9528 8474 92bf c81e 3233 8c83 ce3f
00000200: 4e66 954e 2103 cbbf 007b af42 b048 5fbf
00000210: 0039 accc 89d0 50bf d09e 689f 31f6 c83f
00000220: d8e4 c832 5687 cf3f 1efb 1b2e 3c1b c7bf
00000230: 7a60 162a be5c cebf 22a0 28e9 174a c33f
00000240: 1e9b 4fce f5e1 d1bf 08ec 9ea1 2c65 aebf
00000250: dd69 512d 5308 cabf c15f 2147 81af bebf
00000260: e6ad dea3 af8e a4bf aa43 2e86 aedd c83f
00000270: e743 5776 da0a d13f 99ca 294c aaf0 b03f
00000280: 5e41 4447 e321 c7bf 2e5f dcf0 85f5 c63f
00000290: cde7 1371 4b89 b43f 3668 a89a a933 bd3f
000002a0: 0085 8dd0 2062 c83f 527e fc2e f6b9 b7bf
000002b0: 8ff1 3048 754e ccbf 9211 b640 e4b2 953f
000002c0: ec1e 93b9 c675 c93f 32f9 5136 85c4 cf3f
000002d0: caed 4bae a23b ce3f 059f 83b5 d0eb cfbf
000002e0: ed5f 9d85 be7e bdbf 6a58 9899 6866 abbf
000002f0: 52ac 27aa af38 c93f 5bd8 9e73 4ddd cb3f
00000300: 8259 a353 70f6 b0bf e45e 6304 608e c6bf
00000310: 3c8e c2b1 f730 d23f 10b2 3823 a491 9d3f
00000320: f9f2 4f6f 2587 d1bf d47b 56de 84b3 c3bf
00000330: a92b 47c4 8a31 c2bf aad2 2459 0a55 d1bf
00000340: 1a4e a14a a2ca d13f e0df 935d 01a3 af3f
00000350: 560b 0faf e24d cebf e02b 3ea9 625b 903f
00000360: c023 9044 8d25 9d3f 929f 5bb3 2a32 cfbf
00000370: 458e f8cb 2cde d1bf a491 15f1 0ac0 ccbf
00000380: 10d7 f275 03be d03f 94b2 71f3 2a7e ce3f
00000390: d44c bd57 b06c c33f c491 0431 0701 ca3f
000003a0: 6070 52c7 a2bf b33f 6632 5cd0 dc9b c73f
000003b0: 50a7 112d ddd4 a0bf 38d2 86a2 f321 a83f
000003c0: c8ad c8f5 491e b43f 8804 5af3 302c ab3f
000003d0: 58fb 7530 4ae4 c5bf 2467 6d59 7b5d c7bf
000003e0: ea52 1c57 061c c83f ef9c d837 ee55 c8bf
000003f0: 3cfc e94c 7d18 cc3f 20a8 a4b2 b6b8 86bf
00000400: d854 8281 f5a5 aa3f e2fb e03c 000e b5bf
00000410: 34da 9bd8 0085 bfbf 2059 fa5f 8f54 b13f
00000420: d174 bfd1 b6c4 d1bf 08ad acd3 f4ba c43f
00000430: 62af 4d23 b916 97bf 72e8 e918 e59d a7bf
00000440: 2418 ea52 340a d3bf 1b6f bce4 d661 bdbf
00000450: 9b48 8248 d1ed cb3f 9f37 16df 4622 cabf
00000460: 2d42 2fc6 8cbc 88bf 3bf4 252d 66b0 c73f
00000470: cfc3 6038 b6b3 d03f b72c f0e6 141f b33f
00000480: 7179 8cf1 0a59 d03f 1187 34eb a8ba b9bf
00000490: 4dc2 38de ca11 d13f a869 f6a1 ddfc cebf
000004a0: 8c0f 1569 4596 acbf 884d ce13 2ce6 d03f
000004b0: 6893 e1d3 e655 c0bf 442e 8da1 5071 cfbf
000004c0: a816 c40a 56da d23f b267 2b24 7979 be3f
000004d0: 2260 1eb9 5398 cd3f 00c2 eb26 100b 9ebf
000004e0: ec85 ffa8 292b bf3f 6e0f 76bd e2d4 c9bf
000004f0: bd83 35d1 28c7 c4bf bdd9 4ec8 c90a cebf
00000500: b45c 104c 85f4 c33f 78bd dd9d 764a cc3f
00000510: 68fb a927 0734 a7bf 7293 e6d8 38bd cbbf
00000520: f09d 51d2 4678 9bbf e083 48dc 7786 b83f
00000530: 9a93 f7fe e76f c6bf 46e6 a479 e983 d0bf
00000540: 585e 2d65 5741 c03f b5ba 3ac0 7e89 b33f
00000550: 5aa0 6ab9 694b abbf 7608 d224 9fd4 c3bf
00000560: cd30 7ed4 c0f8 c03f afbe cbab 5fc7 96bf
00000570: cfd7 53d1 6bdc af3f 89f1 fe0c cd00 cc3f
00000580: 3e2e e6bc 6f19 c63f 4ef7 e05f d363 b33f
00000590: 110e 4e50 0a2c c43f a922 86cb 037d c23f
000005a0: 54b8 6ba8 1aaf c8bf eccd d0a2 1dba b23f
000005b0: 0930 66c4 5f19 ccbf 800a 98b1 89f0 96bf
000005c0: bc7c ba2b c15a cf3f 0025 e9d4 9541 82bf
000005d0: cc93 8d42 844b b5bf a297 bebf bccb b8bf
000005e0: 4057 ee41 f95c 99bf 2e84 db4b ce9f cbbf
000005f0: 5689 fd71 8e9f babf c03f 9e39 fdd1 9bbf
00000600: 2cb1 0227 4b75 d13f ad43 47f6 58cc c9bf
00000610: 7813 90e5 2237 a13f 58ac 46d2 d2d0 cd3f
00000620: 289f 6518 5934 d03f 585d 0caf f01e a33f
00000630: 9a60 0ebc 85e1 c7bf 1801 7ac2 4f6a cd3f
00000640: 5113 2e01 f7ee c2bf b03a 32ec 8f0f bcbf
00000650: 7b6b b990 862b c2bf a286 7b50 874d c6bf
00000660: e6f0 ec95 8ff2 ca3f 18ff e1c9 d639 c4bf
00000670: 24cf 43c8 7efb c63f 2b72 14ee ecd7 cbbf
00000680: 1e69 c5ec dbba bf3f 3fac 65d1 f83d b8bf
00000690: 73a9 672a 51b8 d23f 4ddc 89a2 c265 a4bf
000006a0: 5d42 24c1 f3da 44bf 62ef 2521 0df7 c1bf
000006b0: 823d bc38 1aa3 ce3f def0 f85b a97f d03f
000006c0: 0075 16c9 92c6 8abf eef5 96d5 1582 c33f
000006d0: 3403 28a5 a23f d23f 94b4 1853 10bb b63f
000006e0: 0045 6a96 f033 93bf 2a11 0b16 3851 bebf
000006f0: 0019 07bf 267d 63bf c4b2 2f6d a05b d0bf
00000700: f094 6641 266c b53f f02a c04d 3d7b 9cbf
00000710: a032 fdde bf72 d2bf 4e0b dd08 552a c33f
00000720: 34fe b8ed 9c00 cc3f 44d6 0935 f3ab b73f
00000730: 5d7d 035b 957f c1bf 209e 3415 5d58 b7bf
00000740: c0e9 22e1 8054 993f 40dc 4165 f195 bc3f
00000750: 20f5 4af2 56e0 843f 28dd 4255 97e4 ab3f
00000760: 9aa2 69a4 c376 c63f 64a5 bab2 7810 bf3f
00000770: 9046 c4c7 7ed3 aabf 48d2 0f01 e0b8 a73f
00000780: 0c86 119b 6f45 d13f c005 4b1e 3af5 89bf
00000790: b2ed 4308 4cfa c83f f1c4 fb9e ee6a c6bf
000007a0: 65d4 dc15 b786 d0bf 8844 d551 4650 ca3f
000007b0: 5891 f426 bb34 a33f e0f7 59f0 a38f b93f
000007c0: e267 3adc 43b1 b8bf 0c42 8059 4f84 ce3f
000007d0: b5d3 d204 193c c9bf 2078 9289 ac4a c73f
000007e0: 449d 5975 8e2a c03f 5e64 c90a a728 c73f
000007f0: dc14 f65e 0ea4 d1bf 5e2b 23d1 349d b6bf

mlp.layers.0.bias f8 [256]
-0.24438984914512374 0.22690795032867622 -0.22984166980546644 -0.27801270767326425 -0.24587084813417898 0.22319593750496897 -0.10484626104332904 0.2442420921290514
-0.1464173405809325 -0.2599260532203228 -0.2591649994734783 0.24478128262467116 -0.15909040175176486 0.15767530465547713 -0.042201512450017784 0.0765980013380223
-0.07338071372861255 0.18679289552948858 -0.029803404610910855 0.21039069133093813 -0.1890466821786615 0.2750329822579333 0.1811494527602881 -0.04723657391248767
0.1315925995402677 -0.1707726651078017 0.07492959386090058 0.10538235310156781 0.26425169726149095 -0.15142075677756486 -0.2554931612668036 0.165913884044584
-0.1794522567665223 0.1950106699275479 -0.21265740626229057 -0.2060846301290838 0.23323815203611037 -0.04423686800751096 0.2022342790012128 -0.17568636556176906
-0.12679445261342018 -0.026605534264984465 -0.051580834930116976 0.23281116296727267 -0.03860702212150406 -0.14116437219472225 0.20020628380644673 0.25762531327364435
-0.07203278788616635 0.2201286665342797 0.19886941465617142 -0.10921016660618764 0.04940980786651436 0.2826375848823201 -0.0855709717420477 -0.11835064581391852
-0.25500847808419497 -0.23926928806980494 0.06322940903823077 -0.21671235217711374 -0.09117901949924721 0.04553040447359634 -0.08619820410755318 -0.055537796748095225
0.05133073681590857 0.28526237423853823 -0.1912419275296309 -0.04287355646051684 -0.25553968894711815 0.21487807653086705 0.2695739415109037 0.27423355783139564
0.0940624716375642 -0.042248676171231875 0.24923534826530996 -0.21381208605314939 -0.03882795080007348 -0.097405030364662 -0.0491040174066069 0.17081571045527277
0.1698880395197239 0.06940740998655687 0.11387323796509358 0.21174256533189612 -0.24290665173131065 -0.06990810117608943 -0.013887926475104546 -0.09913361372927225
-0.2215625482940298 0.09561557890909474 0.12891099659793998 -0.18649496342158134 -0.0885273446787051 0.033985022468194716 0.061987326060393706 -0.13560670057653523
-0.25457788842056106 0.04096206219049634 0.07070576976560061 0.22104283963395546 -0.19089742349838934 -0.010692913403450775 0.21383980253983803 -0.21978661561331025
0.2388666786019725 0.035901397257935785 0.20845494839538753 -0.10195283193184676 -0.15273852727064713 0.2345713866485223 -0.10423452726936044 0.04026136931443059
-0.20837924452536122 0.021877593829838393 -0.022764738960331803 0.04509286777881013 0.04281028820420413 0.14350410307326827 0.24237183714301963 -0.09868607057567216
-0.2867292430947213 0.25645034315627185 -0.17776582742548358 -0.2722323674432961 -0.06459337080532465 0.22188792913542127 -0.0028250771633988037 -0.05099351854804763
-0.19110139452953984 0.14235425417462153 0.060538914899302174 0.28364046838502865 0.24738509956517468 0.07234681924877012 0.11735277555261893 0.1232336613216497
-0.04328675141340508 0.030168785508981968 -0.30250262695992086 -0.038210171937425264 -0.15449929076232807 -0.014879982295173044 -0.16505781909491551 0.12495055291874947
0.19992700853757403 0.11581323569903762 0.1928809194339339 -0.2233175031635968 -0.043181743396205674 -0.02992932449626371 -0.038118705557883256 -0.13538032421179555
-0.23250956699455866 0.17623407117539816 -0.11371426387851749 0.1407352613125066 0.2531238831816968 -0.2954552326224427 -0.2615785865160427 0.04692770876888898
-0.08492207512611961 0.140064855196481 -0.181104048810186 -0.0027432093432034075 0.16370046909281927 -0.03711364450151555 -0.03843027923983563 0.040097264034753034
0.15152984158849292 -0.27746592669016035 -0.1753817523466335 -0.0845675526325365 0.15414769267150272 0.2509267827165926 0.0063334367806158545 -0.07516354068253624
0.08138308782973308 -0.15544608414955305 0.13272866608566908 -0.1392465014212492 0.004388337202565928 -0.011865813773650638 0.16370936712651907 0.21600512383412346
-0.2954833960068096 -0.2781833299310082 -0.09278719533045071 -0.21979262275947545 -0.11505633953262008 -0.06031860402134567 0.18766693467836174 -0.21112446870346177
-0.07981238284795568 -0.2593292948965286 0.2201495446284351 -0.27584868850001765 -0.15748158497911277 -0.1065140656641591 -0.18914106866027353 0.26408900013557196
-0.03233978962065473 -0.01012826973873271 -0.10715850855027537 -0.1677750710615826 0.2704298219023259 -0.043702965236599556 -0.2643334824507022 -0.21039237947250194
-0.16441430857113484 0.24857744423648087 -0.2762728038177422 0.07611851159031252 0.2447655886014051 0.026146097805339663 0.23685643093577768 -0.11668144549166627
0.24008484356961476 -0.10969218059203348 0.13399394911545723 0.20525471277267587 0.15477668601780814 0.262011788117824 0.03569401082970369 -0.13680845857033674
0.25676407706072135 0.17524359599218914 -0.007786539821416749 -0.1762062160944583 0.07312809042801066 -0.06344137901825106 -0.28761822768507034 0.10267583347358566
0.21403995163511091 -0.11066383933112986 -0.19763846537106916 0.04205321505808171 -0.13811685509902513 0.05089367064866751 -0.13495871678310947 0.08297476643840546
0.019696061217259243 0.04231579358209964 0.03999273332607967 -0.008750639741917927 -0.03031011205531836 -0.09838205656004781 -0.27290445501265814 0.1693419248476625
0.18902575832396423 0.11454829408563305 -0.02959652332937024 0.06936674589550629 0.020789008332168953 0.25252142183927884 0.06740580122691459 0.19630736496682885
00000000: 38be c6a4 2a48 cfbf 6a99 eed8 510b cd3f
00000010: fa47 89ab 736b cdbf 9e0f d5cf f5ca d1bf
00000020: a256 e329 b278 cfbf 168a 173a af91 cc3f
00000030: 67fa 495e 34d7 babf 521d 002b 5343 cf3f
00000040: 1563 aeac cdbd c2bf c66a 7de2 a0a2 d0bf
00000050: 9f69 40cb 2896 d0bf e9df c539 fe54 cf3f
00000060: 76cf 5004 135d c4bf 02e9 7052 b42e c43f
00000070: 6e0e a1c7 6f9b a5bf a08e af36 ed9b b33f
00000080: 881c 9f15 14c9 b2bf 664f b660 d4e8 c73f
00000090: 9009 74a0 c884 9ebf 5019 5309 15ee ca3f
000000a0: c4f4 af82 ae32 c8bf 83a0 07f0 239a d13f
000000b0: 1699 a5bf e72f c73f 4c29 4268 642f a8bf
000000c0: c4e5 b5bb 06d8 c03f 9229 d8f1 e0db c5bf
000000d0: e797 22fb 952e b33f ed91 2580 56fa ba3f
000000e0: 5fa3 69f3 7fe9 d03f 7dc9 255f c161 c3bf
000000f0: 5b86 fffc ff59 d0bf e13f f688 aa3c c53f
00000100: c3b7 00a3 4af8 c6bf fcdc da10 1cf6 c83f
00000110: 6009 939e 5b38 cbbf 026c 4e2d fb60 cabf
00000120: 4e58 966d bfda cd3f 064d bdfa 36a6 a6bf
00000130: 575d 3817 d0e2 c93f 5f6f 380d e47c c6bf
00000140: 69f9 a4f5 cc3a c0bf 402c 3e2e 7b3e 9bbf
00000150: bc1d 409e cd68 aabf e848 8b95 c1cc cd3f
00000160: 46cc d0b2 4cc4 a3bf e9e5 f794 ac11 c2bf
00000170: 4a81 b308 5ca0 c93f a073 c8e1 ee7c d03f
00000180: 4cf6 35a4 bd70 b2bf 12a2 d617 2d2d cc3f
00000190: d2bb 0f90 8d74 c93f 87db f68d 32f5 bbbf
000001a0: 3cd2 c609 3e4c a93f c728 ecf3 bb16 d23f
000001b0: 1479 1ead fae7 b5bf d033 3b59 3a4c bebf
000001c0: 27c2 6414 0f52 d0bf cb37 9943 60a0 cebf
000001d0: 8cf0 f673 cd2f b03f 49b6 9ef8 3abd cbbf
000001e0: 0fa3 d41a 8257 b7bf 8e20 60dc c24f a73f
000001f0: e7a9 9de3 1511 b6bf 802e 7339 736f acbf
00000200: 5bcd ceb7 0548 aa3f bf90 081e bd41 d23f
00000210: e98f 2e90 9d7a c8bf f2e5 b8d5 85f3 a5bf
00000220: 97e7 b623 c35a d0bf 2eea a9f3 1f81 cb3f
00000230: 5729 a90f b340 d13f 1b80 96e8 0a8d d13f
00000240: 20da 7667 7a14 b83f 14d3 e854 9ea1 a5bf
00000250: 2e41 e7a2 f1e6 cf3f 803d 8bc6 315e cbbf
00000260: 5cca b6d5 41e1 a3bf fad1 e13b 89ef b8bf
00000270: a628 ba69 2924 a9bf 0832 0609 4add c53f
00000280: a500 dc2a e4be c53f 0c09 fe1b afc4 b13f
00000290: b41f f3e8 cb26 bd3f 02c5 a260 611a cb3f
000002a0: 0c5b 95ae 9017 cfbf f5d9 4650 7fe5 b1bf
000002b0: d79a 28f0 4571 8cbf 13ca e60c d260 b9bf
000002c0: d17b 785d 295c ccbf 5515 6738 437a b83f
000002d0: 4ed0 3dd1 2780 c03f 20d8 6124 11df c7bf
000002e0: bc5e 3262 baa9 b6bf 7504 1c20 7c66 a13f
000002f0: 514a 6484 cdbc af3f 941e 0c74 8f5b c1bf
00000300: 5a44 430e 014b d0bf cd44 f8ba faf8 a43f
00000310: 7021 c8f8 c519 b23f 7114 9fbb 214b cc3f
00000320: b07a 68a7 536f c8bf f22a ef8a 2ae6 85bf
00000330: 18f0 3e47 1a5f cb3f 342f 14c3 f721 ccbf
00000340: fb8c 59ee 2e93 ce3f f802 35fe aa61 a23f
00000350: 5a16 06d9 a6ae ca3f fec1 e1ae 9419 babf
00000360: a6ba bba1 ef8c c3bf 8dcb 1d69 6f06 ce3f
00000370: 7865 bc2d 1daf babf f1cc fe60 239d a43f
00000380: 1268 33cc 2bac cabf d0ab 0e78 1467 963f
00000390: 3bae 58c5 a34f 97bf 8b22 c990 6916 a73f
000003a0: a8ed 89e7 3aeb a53f e24f c5aa 575e c23f
000003b0: 2e17 0055 0a06 cf3f 7a79 b185 7d43 b9bf
000003c0: ad83 799c c559 d2bf d7dd 39b3 ae69 d03f
000003d0: 3ec5 91d7 07c1 c6bf 2139 c54e 416c d1bf
000003e0: 86b3 25ef 3089 b0bf 32c4 81db d266 cc3f
000003f0: 80af d0c0 9d24 67bf 3994 f18c d21b aabf
00000400: 0eb8 dcaf 0276 c8bf 3330 1009 aa38 c23f
00000410: ee72 41e7 f4fe ae3f e04a e259 2a27 d23f
00000420: 6e37 13a0 50aa cf3f 9ca1 a436 5285 b23f
00000430: 41e4 17dd d40a be3f 3890 24c1 3d8c bf3f
00000440: 4d60 575b ae29 a6bf e705 7cec 90e4 9e3f
00000450: ffcd 6ffa 335c d3bf e009 b19d 4890 a3bf
00000460: 9529 8afc a1c6 c3bf 7326 956a 6579 8ebf
00000470: 821a 7b57 9d20 c5bf 9934 676a c2fc bf3f
00000480: 63c4 a04d 3597 c93f 5474 c5ab efa5 bd3f
00000490: 3bde 7e6c 52b0 c83f a123 5bfe aa95 ccbf
000004a0: 0889 57df ea1b a6bf fa7d 9cf7 caa5 9ebf
000004b0: 1653 7983 4b84 a3bf 1b7a 8178 2454 c1bf
000004c0: 0ed7 1f9d dfc2 cdbf a5d3 118a d68e c63f
000004d0: 1a6b 72c4 601c bdbf f198 5df0 9c03 c23f
000004e0: bb85 0684 2e33 d03f e1e8 6210 bde8 d2bf
000004f0: 5ce6 9a1c b4bd d0bf f28e e09c e806 a83f
00000500: 1909 60ff 73bd b5bf 72a5 312a a5ed c13f
00000510: 4e0e 68df 6a2e c7bf 42d4 484d ed78 66bf
00000520: 62f8 8b10 23f4 c43f 501f bd42 8f00 a3bf
00000530: 7bc1 0531 22ad a3bf 456e 60eb a087 a43f
00000540: 38cd fe70 5465 c33f 5ede 3872 00c2 d1bf
00000550: 5a6d 52c5 e872 c6bf 6308 dc18 38a6 b5bf
00000560: 4b94 6391 1cbb c33f 2f54 5d35 2f0f d03f
00000570: 2824 81fd 16f1 793f 5543 15f5 ea3d b3bf
00000580: 641b ada4 85d5 b43f 0f57 db43 a8e5 c3bf
00000590: 1232 0ac0 40fd c03f 39e5 d750 d4d2 c1bf
000005a0: 002c 4d4c 81f9 713f 5b3a c990 1a4d 88bf
000005b0: 98ba edb4 6df4 c43f 2268 514f 0ea6 cb3f
000005c0: 920e 9730 33e9 d2bf d125 1674 c1cd d1bf
000005d0: b48d 6ed1 e6c0 b7bf adb6 5327 2a22 ccbf
000005e0: 9175 7d0f 5574 bdbf 1c5f 397f 14e2 aebf
000005f0: 09f8 7d59 7805 c83f 43be 3b68 2006 cbbf
00000600: 49d6 2596 956e b4bf cf6b 1ee6 d998 d0bf
00000610: 2647 343b dc2d cc3f de21 f041 81a7 d1bf
00000620: 7b90 9a48 5b28 c4bf 7770 977c 8144 bbbf
00000630: 8af9 1c48 c635 c8bf 2333 b48c d5e6 d03f
00000640: 9c7a 8f45 d78e a0bf 40e8 575a 21be 84bf
00000650: 6429 b671 bd6e bbbf cf93 a54d a779 c5bf
00000660: 02c0 3be2 b84e d13f f0dc db2c 3c60 a6bf
00000670: 8044 97fb d6ea d0bf febc 9432 23ee cabf
00000680: 655b 272f 870b c5bf ec6c c2bc 62d1 cf3f
00000690: a8f8 4a20 74ae d1bf 048d e6b5 807c b33f
000006a0: 4157 1d93 7a54 cf3f 10c2 f7eb 0ac6 9a3f
000006b0: 90b4 5bc0 4f51 ce3f 71cc 6fd0 d5de bdbf
000006c0: 67c9 b2a3 19bb ce3f b20b 4568 c914 bcbf
000006d0: 1309 a8b6 b626 c13f aab0 5a53 c945 ca3f
000006e0: 889b 50f2 b8cf c33f 767b 4817 cdc4 d03f
000006f0: 8071 5a42 7c46 a23f 2419 b087 f082 c1bf
00000700: e8db 7098 d26e d03f 8658 cfd4 616e c63f
00000710: 009e 1c5e c7e4 7fbf 3c22 bddf ec8d c6bf
00000720: 0ca7 cec4 85b8 b23f 1eb6 18b8 b13d b0bf
00000730: d503 6948 5668 d2bf b8cc dba2 f648 ba3f
00000740: 64b5 2740 a965 cb3f 8ee9 c622 7754 bcbf
00000750: bea5 999c 374c c9bf 8473 bbbe ff87 a53f
00000760: 939d d627 d0ad c1bf f8d2 0436 bc0e aa3f
00000770: e160 72c5 5346 c1bf 4c06 3f94 d53d b53f
00000780: cd0e 274b 342b 943f d82c 146b 6aaa a53f
00000790: 8123 6d73 ed79 a43f 84bd 15fc daeb 81bf
000007a0: 7010 1030 9d09 9fbf e649 7003 912f b9bf
000007b0: 8e92 4d3f 4477 d1bf bbfc 8706 ffac c53f
000007c0: f62f 0dfd fe31 c83f f00e e978 0953 bd3f
000007d0: 808b 190f 8d4e 9ebf a017 0de1 04c2 b13f
000007e0: 8f9b 9cbb b649 953f 30b4 159c 4f29 d03f
000007f0: e48c d4af 8141 b13f 338c 3f88 9920 c93f

mlp.layers.1.weight f8 [128, 256]
-0.014695410875281742 0.026190104715620825 0.02393759577477699 0.010181419760356906 0.016972516731005145 0.039758561197536325 0.024012449144055217 -0.02091775600855219
0.016807750182545662 -0.017556416667220867 0.025987106338762105 -0.06000979005915756 0.02914590095169509 -0.041362646101386 -0.06214777097857462 0.05472953116093198
0.04538640075763816 0.007975904552305775 -0.03750965166164773 -0.038269348992699986 0.0012354409252467655 -0.015785594135664174 0.026358352563758007 -0.04983050397257421
0.03384305400013119 0.03483060113600201 -0.008039979720502372 -0.014769365594331353 0.01879591861453713 -0.04040359395351874 0.011792457500463156 -0.021107798930676325
0.034894139002560456 0.019773706410242585 -0.02590977575737903 0.015161773527535867 0.03524749913836018 0.009623727750776752 -0.042736385991117065 0.008686908176514907
-0.04599433073558762 -0.011935066932990665 -0.03221638551507919 -0.04467750328311166 0.03910520741148487 0.003005016351406558 0.048327515205615255 0.03582875378975227
0.03486489696083825 0.025169703808231712 0.05408044057203603 0.014041327030179533 -0.0008964845287052678 0.020278656157933596 0.01788420213161939 -0.00047391670403770564
-0.02236825319485014 0.02101637648038269 -6.005538182331238e-05 0.02875158599285079 -0.06589612112677659 0.028420056985497155 0.03375055513562009 -0.03490657657474075
-0.06647728848438202 0.0180284657491619 0.00779877557085807 -0.032027783636174846 0.016136153284718922 0.0273526270268099 0.04052087609478675 -0.011678519627024958
-0.01898251864055972 -0.031105408774029036 -0.06289463345330919 -0.02771587318030802 0.05862635399800548 -0.009809400018263432 -0.019551614251746948 -0.04023876765802145
-0.0068821960915016545 -0.017688016386866276 -0.027259141891834995 0.016954193974812397 -0.04689342342883709 -0.03167382207709038 -0.010980423054390748 0.0037148971625933593
-0.0004410039909147748 -0.04703094048762937 0.005103025629469607 -0.0690781435500928 0.026474459159162647 -0.0497951480117181 -0.05163889306229864 -0.042710607006496884
0.05340771236524428 0.026695385023839658 0.002472241791049261 -0.07349652001653104 -0.0011045064547626215 -0.007522077217823869 0.01344941123285628 0.00891998416209406
-0.07120101353556431 -0.034956415203084415 -0.04879180456531452 0.00983637055691453 0.0038044355738722823 -0.009564283113811555 -0.0036898757874057955 -0.07673226313657275
-0.03769472623618922 -0.047564191567866905 0.02878677973837116 -0.06004719333768435 -0.035510302845467454 0.052036630439422145 -0.035422591776451934 -0.04575657729240626
0.0036057065131101726 -0.011802043763629984 -0.06092876084544118 0.012288557928102076 -0.011288584323236747 0.0018850561735126795 0.022943822806182936 -0.0353953843632752
-0.05797355974856048 -0.029244840572230438 -0.047162986855111735 -0.0747337082106245 -0.04159395164090594 0.02395110240444257 -0.0724592467582783 -0.021963373711541098
-0.06289679107136319 -0.011890352758251605 -0.0011672930202616992 -0.0073627822378524305 -0.008914778734301233 -0.07428498731843991 -0.04555918543547395 -0.013542185552267124
0.008415204120572999 0.0013990572075980937 -0.006013443099219903 -0.04188832070191566 -0.06078412505120614 0.010711808291070483 -0.0702295605840222 -0.06666104316065416
-0.030707322200843143 -0.013140485617407787 0.04125532650270664 0.0119190540271121 -0.013616175786315503 0.034410296402244876 0.025667298080686664 -0.028530605684143864
-0.04381193115170706 0.018808952248138125 0.04846160447584664 0.02412123477381393 0.015466309125958734 -0.046351125980102895 0.0030585645543193206 -0.041472803946560347
-0.010977222829335123 0.015208098301215063 -0.026070674715645743 0.012123454995903456 -0.04297964993212606 -0.042636885928466636 -0.04288731119466556 -0.010087505590348881
-0.06079260726097562 -0.01680815668835719 0.042215011617933874 -0.0074680310110953885 -0.033422833740463204 0.03166768989312956 -0.03499886916811383 0.018258441160134288
-0.0117040680400176 -0.05544562977523051 0.032243231850043734 -0.060874183874543054 -0.028077876460868578 -0.03425309602331959 0.02174761520238718 0.017849587945953607
0.022466739930074794 0.04809485778242673 -0.01257422358226988 0.0016407577845356785 -0.02796873004666395 0.020799404643784686 -0.05796600268538891 -0.020655414697389157
-0.024315200295467212 -0.03476012927255688 0.05874724954371912 -0.013290524140851653 -0.02705213828457496 0.00356350976697304 0.040067998868624076 0.01739746440836836
0.01862402020521787 -0.0007513303694300308 0.036270091064326014 -0.004001170731615822 -0.08281295986456633 -0.020231620633601496 -0.026400905899770843 -0.026054388054961432
-0.004745431068220797 -0.005287582170365748 -0.08298736227677622 0.023782777131199216 -0.04563537823376454 0.0062314399885860326 0.012757400531740369 -0.01212961956611075
-0.05591852501947256 0.0004733929432437946 -0.020050019994294135 0.018906113188509925 0.013928553205562242 -0.004125074926271606 -0.051783700492459395 0.047843368119338835
-0.034342999013829936 -0.01910379737268364 -0.06074943558856754 -0.06450238323594744 0.009812608679595526 0.05797453347630522 -0.08493144801527668 -0.030355546903169633
-0.0012244119977863706 0.005791512467285757 -0.02193129398806026 -0.03734803252608123 0.023454357667895588 0.042749926908549056 0.0011165860901586402 -0.0759086192549861
-0.026955899484803758 0.035431077848031574 -0.03614715800331983 0.05259090988358495 -0.07657679898813535 0.010749151009092028 -0.06238692520681575 -0.014027474010434393
00000000: 988b e2a8 a018 8ebf 0efc ed2c 94d1 9a3f
00000010: ce79 fddb 1883 983f fc3e 2e07 ffd9 843f
00000020: 9273 2951 3e61 913f 75ab 28f0 3b5b a43f
00000030: 0413 152f b896 983f a689 d9d7 766b 95bf
00000040: 42da 6905 0d36 913f 44c2 ae2d 4ffa 91bf
00000050: 9ee1 5e2f 5d9c 9a3f 76e1 7c6b 9ab9 aebf
00000060: d995 994d 6cd8 9d3f 761d 9018 7c2d a5bf
00000070: f39a be27 d5d1 afbf e758 ec54 8205 ac3f
00000080: 67d9 dfe5 e23c a73f 7755 aac9 ab55 803f
00000090: 3a9e 570e 7734 a3bf 64c8 b944 0a98 a3bf
000000a0: 604e af97 d03d 543f c40f 3e4a 192a 90bf
000000b0: 2e7c f318 affd 9a3f 2791 cf41 6283 a9bf
000000c0: cd30 4174 e053 a13f a1ec 8e09 51d5 a13f
000000d0: 6a34 aecf 4377 80bf a7bc aeb1 663f 8ebf
000000e0: e6a8 fdbe 3c3f 933f faaa 57a5 c7af a4bf
000000f0: 2482 6eda a426 883f 5025 6468 489d 95bf
00000100: 3218 ad03 a5dd a13f 8629 69f9 8e3f 943f
00000110: 543a 199e 1788 9abf 31db 99cb 220d 8f3f
00000120: 994d 21d0 f50b a23f a43c a4df 9ab5 833f
00000130: 90b6 5c28 8be1 a5bf 2001 2c14 71ca 813f
00000140: 781b 9fa4 918c a7bf 58dd 3891 6971 88bf
00000150: dc7c 5d84 aa7e a0bf 3990 ef3e f8df a6bf
00000160: 270a df05 9905 a43f a5e9 80de f99d 683f
00000170: db30 9c52 62be a83f b21c 917b 2558 a23f
00000180: bc4e 73d0 cfd9 a13f 8650 d33a 16c6 993f
00000190: b767 3877 6eb0 ab3f e9b3 1803 b3c1 8c3f
000001a0: ac63 b7dd 4160 4dbf 0a47 0594 edc3 943f
000001b0: eed8 147d 3c50 923f d6cd afbe 000f 3fbf
000001c0: 001a c30f b4e7 96bf 6298 a726 5185 953f
000001d0: 0088 0035 7f7c 0fbf 6690 3046 0e71 9d3f
000001e0: 023a 2c75 91de b0bf 5071 36bd 251a 9d3f
000001f0: c104 0fb5 c047 a13f c48f 9b59 46df a1bf
00000200: fd98 f7d3 a704 b1bf d2a8 28db 0d76 923f
00000210: 882e 69e0 9bf1 7f3f 7dbc 8f16 f265 a0bf
00000220: 567f 90ea fe85 903f 4eca 28ba 5302 9c3f
00000230: f5c6 43fb 26bf a43f 50fe e85e e8ea 87bf
00000240: 9014 0743 2770 93bf 0815 a7a5 18da 9fbf
00000250: 739f c6d9 dc19 b0bf c8da 8ec3 8c61 9cbf
00000260: 89d6 3502 4604 ae3f aab1 2c62 f316 84bf
00000270: cf58 2e9f 5605 94bf 2cbe 3efe 2c9a a4bf
00000280: 89d9 3372 8130 7cbf 8c9b a6af ce1c 92bf
00000290: e412 c50b d2e9 9bbf 0e81 9bb2 705c 913f
000002a0: b375 0c30 6a02 a8bf f4bc eb1b 8d37 a0bf
000002b0: 4a9e 516f e77c 86bf 556e 483a b46e 6e3f
000002c0: e70a e8b7 d1e6 3cbf 73c7 967e 7014 a8bf
000002d0: 6a0d 0703 e9e6 743f b981 6aef 1aaf b1bf
000002e0: 1452 12e1 1e1c 9b3f 0b6c 6be8 bf7e a9bf
000002f0: 21f5 ceb9 6970 aabf 6207 9228 2ade a5bf
00000300: 1901 ed73 4158 ab3f 0dad 86f6 0856 9b3f
00000310: 70d6 7db4 aa40 643f 563f d7fd aad0 b2bf
00000320: 00c5 7dc6 a218 52bf ac6b 603a 78cf 7ebf
00000330: 0e22 2a6b 5d8b 8b3f c466 0e02 a444 823f
00000340: 11ca 93c8 3a3a b2bf 6a50 2aa8 cee5 a1bf
00000350: 9179 d749 3dfb a8bf 3387 d34e 1725 843f
00000360: 8a1c d3cb 7a2a 6f3f d3d1 7759 7096 83bf
00000370: 50a8 a9fa 3a3a 6ebf be3a b8c0 b9a4 b3bf
00000380: d40b d520 b94c a3bf 0945 7d6e 555a a8bf
00000390: 3a43 2216 487a 9d3f ec31 3477 81be aebf
000003a0: 96e0 c80a 682e a2bf b9da dc93 8ba4 aa3f
000003b0: c457 70f2 e822 a2bf c476 18f6 676d a7bf
000003c0: b064 b0f1 b689 6d3f 240f ed7f ab2b 88bf
000003d0: 5f17 6ff6 0d32 afbf a260 5453 be2a 893f
000003e0: b83a e423 781e 87bf a070 72a7 7fe2 5e3f
000003f0: 0a1f 64e2 957e 973f 350b 8a04 581f a2bf
00000400: c537 4ede b5ae adbf a47d 5607 5cf2 9dbf
00000410: 1aaf 3f3c bf25 a8bf 7e66 ac90 bf21 b3bf
00000420: 4ea8 046c cd4b a5bf 0af4 1e46 a386 983f
00000430: 109e 1e6f b08c b2bf dc1d 340f 917d 96bf
00000440: f3c2 ac0c 011a b0bf d772 e021 f859 88bf
00000450: 142b 3356 fb1f 53bf 50d2 b4ce 6f28 7ebf
00000460: ba50 eb58 e941 82bf 40d1 1d47 5704 b3bf
00000470: fa9c f496 8853 a7bf 2bbe 8160 01bc 8bbf
00000480: 9c6d e593 fd3b 813f 2063 eb3c 12ec 563f
00000490: 70fc 2857 8da1 78bf 6688 ffce 6272 a5bf
000004a0: b3fb 6bca 181f afbf 9c50 5492 12f0 853f
000004b0: 41bb eb81 90fa b1bf 2ad1 4ab8 b210 b1bf
000004c0: bcc3 6682 bd71 9fbf 89b4 d71f 66e9 8abf
000004d0: b9d7 3a0c 6b1f a53f 6f33 f759 0469 883f
000004e0: d62a 972d cce2 8bbf 4bf9 62f3 399e a13f
000004f0: fa3a 5537 8748 9a3f 37d5 6489 2037 9dbf
00000500: 383f f176 846e a6bf 1472 1c6b a742 933f
00000510: e9bf ab9c f5cf a83f 2b7e f8a9 3cb3 983f
00000520: 5428 16df ccac 8f3f 4a44 6fb4 55bb a7bf
00000530: 33e2 7857 460e 693f 5a6f 3f61 ec3b a5bf
00000540: 4856 6ce8 397b 86bf 045f b466 6c25 8f3f
00000550: e545 275d 45b2 9abf e484 c695 2ed4 883f
00000560: a93a b4bd 6d01 a6bf 1604 557d 80d4 a5bf
00000570: 4a2a fd5d 53f5 a5bf 82c0 de14 c2a8 84bf
00000580: 5786 0c68 3520 afbf 9651 214d 2836 91bf
00000590: 053c 99bc 349d a53f 80a8 544f cc96 7ebf
000005a0: 04ba b533 cc1c a1bf d799 dc58 bf36 a03f
000005b0: 46b4 f22c 5feb a1bf ba86 a23e 57b2 923f
000005c0: 193f b26b 4df8 87bf 5375 2e9d 5e63 acbf
000005d0: af66 a054 2f82 a03f 65de d2a9 e62a afbf
000005e0: a3ee 8f64 72c0 9cbf 7eef 692e 9f89 a1bf
000005f0: f6b0 3dc0 0145 963f 6458 e691 2947 923f
00000600: ac58 fd64 8501 973f c105 90a2 e39f a83f
00000610: f8af 77b8 83c0 89bf 7d80 9d41 d6e1 5a3f
00000620: 71bd 71b3 d5a3 9cbf 38a3 e26a 704c 953f
00000630: 558f a04b b8ad adbf 3842 716a b126 95bf
00000640: 4746 4278 15e6 98bf ae58 dc64 14cc a1bf
00000650: df5a 0a97 1e14 ae3f 0bd5 40f4 0f38 8bbf
00000660: bb60 e044 8eb3 9bbf d05d 0fbd 3831 6d3f
00000670: 1b89 83f1 ca83 a43f ce47 ab12 a4d0 913f
00000680: f249 ced6 2c12 933f caa9 beae 9d9e 48bf
00000690: 1371 e34d fe91 a23f c00e 0217 8863 70bf
000006a0: 4ca3 4dea 3a33 b5bf 3c97 dd13 99b7 94bf
000006b0: e078 b2cd d608 9bbf a712 7462 00ae 9abf
000006c0: 8e17 e5f3 f16f 73bf 1036 f287 6ea8 75bf
000006d0: 5cc6 f5e6 a83e b5bf 163c f227 835a 983f
000006e0: b4f5 1b32 855d a7bf aad1 536f 2386 793f
000006f0: 0cc1 8650 8d20 8a3f 2081 cbfa 69d7 88bf
00000700: 8cfc 6558 5aa1 acbf 3689 9a35 3706 3f3f
00000710: 8478 a310 fe87 94bf 6e43 5bc7 1f5c 933f
00000720: 1fe6 fcc3 9286 8c3f 2e20 6e5e 74e5 70bf
00000730: 3075 29a8 6483 aabf 7b5c ce0a ed7e a83f
00000740: bacf 38d3 6795 a1bf e0c4 c723 f28f 93bf
00000750: 17eb 34ce 8c1a afbf 1d30 836a 3a83 b0bf
00000760: 743f f00a a218 843f 512c 908a d6ae ad3f
00000770: 4ba6 a03f 11be b5bf 9823 ce44 8615 9fbf
00000780: a74a 305f 8e0f 54bf b80b 434a d7b8 773f
00000790: 3f2f c039 2875 96bf 13f7 8904 481f a3bf
000007a0: 3a79 874c 6b04 983f 2f0c f583 51e3 a53f
000007b0: 20b6 622f 4d4b 523f 4447 2f4d bf6e b3bf
000007c0: b0cf e2ca 539a 9bbf 4118 3db1 0524 a23f
000007d0: b469 ef5a e181 a2bf 91a4 081c 32ed aa3f
000007e0: fc51 497f 899a b3bf 06bc 59a0 a603 863f
000007f0: cd2b ecd6 2df1 afbf d362 f6b0 6fba 8cbf

mlp.layers.1.bias f8 [128]
-0.07270734722882655 -0.036405658770367416 -0.05334683659233748 -0.007310991774040785 -0.07501879719632025 0.00016573295988900788 0.07736026707606043 -0.02854035749220836
-0.07029762312674194 -0.033246441646715794 0.06705347844275904 0.0046909023244497946 -0.041276594048141074 -0.03781988154018982 -0.017917836496652517 -0.06056899449041413
0.05586930453295601 -0.04993830132469631 -0.06782557887354312 0.059483396244548056 0.04712523105792611 0.05168617873892574 0.036007163932510335 0.059317353315226334
-0.05970533685811967 0.008252812600806713 0.05889524713501301 0.01312033416221213 -0.005964325854435654 0.04113492240350314 -0.057332244935385204 -0.025430423958492307
-0.05912827835162922 -0.0010028988189920295 0.03411213680435407 0.0016961892400003675 0.03716546090908353 0.024947574155935855 0.020411171314598013 -0.06952265765836914
-0.03773657573288147 0.018773649257605992 0.0691590977463605 -0.0406810412106558 -0.025172219060965877 0.01072303814872017 0.029396042207157497 0.05409512522704476
-0.0037069196742300636 -0.06156308424537507 0.0405157878492646 0.0508063619494348 -0.018225219986306405 -0.03212495819723647 0.0528824173438536 -0.015473254610596662
0.06182568943478843 -0.07897130964283094 0.03990474745847079 -0.03981960766422538 0.019138852889271994 0.06162306923481915 -0.05733865603141984 0.06801387143366837
0.032962661790552836 -0.007515167478200265 -0.014309003974325682 -0.0015370848111796592 0.05596444129897783 -0.028236644375295158 -0.07837341707547384 -0.035188423762464796
-0.013463310439516362 -0.05172476784641275 0.05672082509417783 -0.0038548375509398353 0.03310678123601361 0.07997863970106946 -0.03638372046152606 -0.04348620062188722
0.026128135224828958 0.01754199965186038 0.01842930411715916 -0.0221597659983564 -0.040115242762726024 -0.00638045651431271 0.04471455333295117 0.008300095872021948
-0.05528262706174744 -0.05409952083906282 -0.012611388709295304 0.050552379834790745 0.03995780653030179 0.03117711597587769 -0.07300340977183005 0.0604014005638049
-0.052270785733439656 -0.07894760853744012 0.00887762674882465 -0.034206733757005905 -0.01729387657206289 0.03415886730756498 0.041794274226553865 -0.004187744965669425
0.02790849961360689 -0.05899318308795378 -0.013438196638727029 -0.0628237356579156 -0.06143980980596628 -0.05782458177922757 -0.052329928769128384 -0.03392858211620808
-0.06448468823517481 -0.02320407585713704 -0.07165675798878204 -0.03526942091882307 -0.061529559554642746 0.015408089997214658 -0.019611444689080007 0.02885939669336207
-0.033236846056480425 -0.06129176873850877 -0.010631396152472522 0.016855222195633082 0.03914058408280094 0.018690040995846008 0.03473482439546425 -0.08002557497341868
00000000: 88d7 86de f29c b2bf 84ba 9d33 c3a3 a2bf
00000010: baae 04cd 4650 abbf d71e 2269 21f2 7dbf
00000020: ab1f 8b90 6e34 b3bf a6e4 0149 13b9 253f
00000030: 3dfc 19e9 e1cd b33f 9444 2ef8 ae39 9dbf
00000040: 29de 5068 06ff b1bf 067b 2977 ad05 a1bf
00000050: 13a4 feb0 6a2a b13f 7de7 2781 c436 733f
00000060: 6cd7 0dab 3422 a5bf 6619 b5a4 205d a3bf
00000070: 70a2 12a7 0d59 92bf 56d2 f934 e602 afbf
00000080: ae7c a3c7 e69a ac3f 3bc5 0356 8391 a9bf
00000090: 5019 1863 045d b1bf c6f9 0c93 9b74 ae3f
000000a0: 12a4 6b5c cc20 a83f da83 ad5e 9c76 aa3f
000000b0: 3d10 06ef 876f a23f 2cfa 2519 d85e ae3f
000000c0: 3692 67aa b291 aebf d38b c3c1 d9e6 803f
000000d0: 3c60 ab90 8427 ae3f 7845 1d71 d5de 8a3f
000000e0: a0c0 cc87 0c6e 78bf 60a1 e4f4 a20f a53f
000000f0: 5aea 01ea a65a adbf ec8a e6dc 6e0a 9abf
00000100: 0afc 93cb 0f46 aebf 42bb 3d68 766e 50bf
00000110: 8c58 f15f 2577 a13f 007e 1254 55ca 5b3f
00000120: 2a62 4aee 5907 a33f a205 755c db8b 993f
00000130: beb6 1385 aae6 943f 5d44 f9a4 3ccc b1bf
00000140: 7081 455d 3552 a3bf af1a 5a46 6639 933f
00000150: ce9e 0a1f 69b4 b13f 284d 223b 25d4 a4bf
00000160: 9bd3 8906 bfc6 99bf e3d3 4cd1 f5f5 853f
00000170: 7874 a5ff fe19 9e3f e344 7233 5bb2 ab3f
00000180: c085 a158 f95d 6ebf 3416 f352 3285 afbf
00000190: 448b 913f 7cbe a43f a4cc 009e 4a03 aa3f
000001a0: b6e0 36cf a1a9 92bf de5b afb9 ae72 a0bf
000001b0: c4f0 0c7a 6713 ab3f f81d 1f14 71b0 8fbf
000001c0: a6a2 59e4 9da7 af3f d8fd 3cb8 7637 b4bf
000001d0: 5a1b 9422 656e a43f 9996 5051 3c63 a4bf
000001e0: 0632 f8ac 2299 933f badb 1516 0f8d af3f
000001f0: 6e30 e708 7e5b adbf 5b61 7b69 5b69 b13f
00000200: 2e52 c264 7be0 a03f 9571 af68 39c8 7ebf
00000210: 0b50 dd00 0a4e 8dbf 4046 b13f 002f 59bf
00000220: 526d 3c0a 5fa7 ac3f 1f0d 9020 11ea 9cbf
00000230: 8705 37bf 4710 b4bf f2e0 8392 3704 a2bf
00000240: 99d9 44f0 a692 8bbf 3c4a 9634 ab7b aabf
00000250: cb31 9011 830a ad3f e044 ce26 2e94 6fbf
00000260: 6e77 5e3d 5ff3 a03f 7908 e5e9 7a79 b43f
00000270: 2266 fa12 e3a0 a2bf 3d21 ffc2 d243 a6bf
00000280: 6836 2f79 55c1 9a3f f2a6 3eab 87f6 913f
00000290: e38b e2a9 21df 923f d1f3 ffb8 0cb1 96bf
000002a0: 3d59 792f fc89 a4bf 6018 00c1 6422 7abf
000002b0: a2c7 7070 d3e4 a63f b88c 9702 a4ff 803f
000002c0: 7cca 8826 014e acbf b651 77b1 eeb2 abbf
000002d0: 682f 82f0 ffd3 89bf ec33 4064 00e2 a93f
000002e0: 30fb 8880 5975 a43f 60fe ffd5 e4ec 9f3f
000002f0: 576c 77f9 59b0 b2bf fab7 1bb0 eeec ae3f
00000300: 3ccf 8586 3cc3 aabf f205 c414 e935 b4bf
00000310: 851a 6be4 6e2e 823f b221 9485 8b83 a1bf
00000320: 7239 3169 7cb5 91bf 7ca6 e863 457d a13f
00000330: 0a1c ed21 0f66 a53f 7e9f be3a 2b27 71bf
00000340: 68c5 7bb4 0b94 9c3f 8372 19c0 5a34 aebf
00000350: 40f7 a438 7c85 8bbf 3434 1062 3715 b0bf
00000360: fc02 94eb 0975 afbf 0217 4bff 2e9b adbf
00000370: 66b1 5409 fdca aabf 7f72 2d4d 165f a1bf
00000380: be15 108b 1182 b0bf c6df c22b cfc2 97bf
00000390: 8a65 19e8 1858 b2bf 1858 ca62 d50e a2bf
000003a0: fa87 0c6c cd80 afbf 800d 0ed5 468e 8f3f
000003b0: 7484 44c6 0515 94bf b0ce eb53 518d 9d3f
000003c0: f966 ab7d 6b04 a1bf 57e5 7d7c a261 afbf
000003d0: b017 49d6 e9c5 85bf 0463 63d0 7e42 913f
000003e0: bcf7 2911 3c0a a43f d82b 5a6b 7b23 933f
000003f0: 0d24 9f4d c3c8 a13f e1bb 5a5b 8e7c b4bf
